Network     #nets     #params

BaseCNN     1         1,307,078
Ensemble


Base run:

Model: "sequential"
_________________________________________________________________
Layer (type)                 Output Shape              Param #
=================================================================
conv2d (Conv2D)              (None, 32, 32, 48)        1344
_________________________________________________________________
conv2d_1 (Conv2D)            (None, 32, 32, 96)        41568
_________________________________________________________________
conv2d_2 (Conv2D)            (None, 32, 32, 212)       183380
_________________________________________________________________
dropout (Dropout)            (None, 32, 32, 212)       0
_________________________________________________________________
max_pooling2d (MaxPooling2D) (None, 16, 16, 212)       0
_________________________________________________________________
conv2d_3 (Conv2D)            (None, 16, 16, 424)       809416
_________________________________________________________________
dropout_1 (Dropout)          (None, 16, 16, 424)       0
_________________________________________________________________
max_pooling2d_1 (MaxPooling2 (None, 8, 8, 424)         0
_________________________________________________________________
flatten (Flatten)            (None, 27136)             0
_________________________________________________________________
dense (Dense)                (None, 10)                271370
=================================================================
Total params: 1,307,078
Trainable params: 1,307,078
Non-trainable params: 0
_________________________________________________________________
None
2022-06-18 14:54:49.936758: I tensorflow/compiler/mlir/mlir_graph_optimization_pass.cc:185] None of the MLIR Optimization Passes are enabled (registered 2)
Epoch 1/10
1407/1407 [==============================] - 396s 281ms/step - loss: 1.5722 - accuracy: 0.4376 - val_loss: 1.3130 - val_accuracy: 0.5396
…
