…
 #params     n_conv  start_channels

BaseCNN     1           1,118,698   4           32

Ensemble    1           26,706      4           4
Ensemble    20          534,120     4           4


=========================================================================================================================================================
Base run:

Model: "sequential"
_________________________________________________________________
Layer (type)                 Output Shape              Param #
=================================================================
conv2d (Conv2D)              (None, 32, 32, 48)        1344
_________________________________________________________________
conv2d_1 (Conv2D)            (None, 32, 32, 96)        41568
_________________________________________________________________
conv2d_2 (Conv2D)            (None, 32, 32, 212)       183380
_________________________________________________________________
dropout (Dropout)            (None, 32, 32, 212)       0
_________________________________________________________________
max_pooling2d (MaxPooling2D) (None, 16, 16, 212)       0
_________________________________________________________________
conv2d_3 (Conv2D)            (None, 16, 16, 424)       809416
_________________________________________________________________
dropout_1 (Dropout)          (None, 16, 16, 424)       0
_________________________________________________________________
max_pooling2d_1 (MaxPooling2 (None, 8, 8, 424)         0
_________________________________________________________________
flatten (Flatten)            (None, 27136)             0
_________________________________________________________________
dense (Dense)                (None, 10)                271370
=================================================================
Total params: 1,307,078
Trainable params: 1,307,078
Non-trainable params: 0
_________________________________________________________________
None
2022-06-18 14:54:49.936758: I tensorflow/compiler/mlir/mlir_graph_optimization_pass.cc:185] None of the MLIR Optimization Passes are enabled (registered 2)
Epoch 1/10
1407/1407 [==============================] - 396s 281ms/step - loss: 1.5722 - accuracy: 0.4376 - val_loss: 1.3130 - val_accuracy: 0.5396
…
=================================================================
313/313 [==============================] - 20s 62ms/step - loss: 0.7426 - accuracy: 0.7519

Process finished with exit code 0

=========================================================================================================================================================
Ensemble run:

Model: "Model_0_of_45"
_________________________________________________________________
 Layer (type)                Output Shape              Param #
=================================================================
 conv2d (Conv2D)             (None, 32, 32, 4)         112

 conv2d_1 (Conv2D)           (None, 32, 32, 8)         296

 conv2d_2 (Conv2D)           (None, 32, 32, 16)        1168

 dropout (Dropout)           (None, 32, 32, 16)        0

 max_pooling2d (MaxPooling2D  (None, 16, 16, 16)       0
 )

 conv2d_3 (Conv2D)           (None, 16, 16, 32)        4640

 dropout_1 (Dropout)         (None, 16, 16, 32)        0

 max_pooling2d_1 (MaxPooling  (None, 8, 8, 32)         0
 2D)

 flatten (Flatten)           (None, 2048)              0

 dense (Dense)               (None, 10)                20490

=================================================================
Total params: 26,706
Trainable params: 26,706
Non-trainable params: 0
_________________________________________________________________

Epoch 1/10
1127/1127 [==============================] - 16s 13ms/step - loss: 1.6588 - accuracy: 0.3868 - val_loss: 2.2884 - val_accuracy: 0.3890
Epoch 2/10
1127/1127 [==============================] - 14s 13ms/step - loss: 1.3004 - accuracy: 0.5288 - val_loss: 2.2289 - val_accuracy: 0.3950
…
