Model: "sequential"
_________________________________________________________________
 Layer (type)                Output Shape              Param #   
=================================================================
 conv2d (Conv2D)             (None, 32, 32, 48)        1344      
                                                                 
 conv2d_1 (Conv2D)           (None, 32, 32, 96)        41568     
                                                                 
 conv2d_2 (Conv2D)           (None, 32, 32, 192)       166080    
                                                                 
 dropout (Dropout)           (None, 32, 32, 192)       0         
                                                                 
 max_pooling2d (MaxPooling2D  (None, 16, 16, 192)      0         
 )                                                               
                                                                 
 flatten (Flatten)           (None, 49152)             0         
                                                                 
 dense (Dense)               (None, 10)                491530    
                                                                 
=================================================================
Total params: 700,522
Trainable params: 700,522
Non-trainable params: 0
_________________________________________________________________
loss: [1.5608121156692505, 1.0781753063201904, 0.872399628162384, 0.7280468940734863, 0.5904723405838013, 0.47017091512680054, 0.3623313009738922, 0.2734784185886383, 0.20985181629657745, 0.16623742878437042]
…
