Model: "sequential"
_________________________________________________________________
 Layer (type)                Output Shape              Param #   
=================================================================
 conv2d (Conv2D)             (None, 32, 32, 48)        1344      
                                                                 
 conv2d_1 (Conv2D)           (None, 32, 32, 96)        41568     
                                                                 
 conv2d_2 (Conv2D)           (None, 32, 32, 192)       166080    
                                                                 
 dropout (Dropout)           (None, 32, 32, 192)       0         
                                                                 
 max_pooling2d (MaxPooling2D  (None, 16, 16, 192)      0         
 )                                                               
                                                                 
 conv2d_3 (Conv2D)           (None, 16, 16, 384)       663936    
                                                                 
 dropout_1 (Dropout)         (None, 16, 16, 384)       0         
                                                                 
 max_pooling2d_1 (MaxPooling  (None, 8, 8, 384)        0         
 2D)                                                             
                                                                 
 conv2d_4 (Conv2D)           (None, 8, 8, 768)         2654976   
                                                                 
 dropout_2 (Dropout)         (None, 8, 8, 768)         0         
                                                                 
 max_pooling2d_2 (MaxPooling  (None, 4, 4, 768)        0         
 2D)                                                             
                                                                 
 flatten (Flatten)           (None, 12288)             0         
                                                                 
 dense (Dense)               (None, 10)                122890    
                                                                 
=================================================================
Total params: 3,650,794
Trainable params: 3,650,794
Non-trainable params: 0
_________________________________________________________________
loss: [… accuracy: [… val_loss: [… val_accuracy: [… Training time: 11839.27 seconds
accuracy: 0.784500002861023