Model: "sequential"
_________________________________________________________________
 Layer (type)                Output Shape              Param #   
=================================================================
 conv2d (Conv2D)             (None, 32, 32, 32)        896       
                                                                 
 conv2d_1 (Conv2D)           (None, 32, 32, 64)        18496     
                                                                 
 conv2d_2 (Conv2D)           (None, 32, 32, 128)       73856     
                                                                 
 max_pooling2d (MaxPooling2D  (None, 16, 16, 128)      0         
 )                                                               
                                                                 
 conv2d_3 (Conv2D)           (None, 16, 16, 256)       295168    
                                                                 
 max_pooling2d_1 (MaxPooling  (None, 8, 8, 256)        0         
 2D)                                                             
                                                                 
 conv2d_4 (Conv2D)           (None, 8, 8, 512)         1180160   
                                                                 
 max_pooling2d_2 (MaxPooling  (None, 4, 4, 512)        0         
 2D)                                                             
                                                                 
 conv2d_5 (Conv2D)           (None, 4, 4, 1024)        4719616   
                                                                 
 max_pooling2d_3 (MaxPooling  (None, 2, 2, 1024)       0         
 2D)                                                             
                                                                 
 flatten (Flatten)           (None, 4096)              0         
                                                                 
 dense (Dense)               (None, 10)                40970     
                                                                 
=================================================================
Total params: 6,329,162
Trainable params: 6,329,162
Non-trainable params: 0
_________________________________________________________________
loss: [1.7741189002990723, 1.2054717540740967, 0.8766117095947266, 0.6530761122703552, 0.4702526330947876, 0.31345242261886597, 0.19863328337669373, 0.14023198187351227, 0.09786204248666763, 0.07911155372858047]
…
