 Layer (type)                Output Shape              Param #   
=================================================================
 conv2d (Conv2D)             (None, 32, 32, 32)        896       
                                                                 
 conv2d_1 (Conv2D)           (None, 32, 32, 64)        18496     
                                                                 
 conv2d_2 (Conv2D)           (None, 32, 32, 128)       73856     
                                                                 
 dropout (Dropout)           (None, 32, 32, 128)       0         
                                                                 
 max_pooling2d (MaxPooling2D  (None, 16, 16, 128)      0         
 )                                                               
                                                                 
 conv2d_3 (Conv2D)           (None, 16, 16, 256)       295168    
                                                                 
 dropout_1 (Dropout)         (None, 16, 16, 256)       0         
                                                                 
 max_pooling2d_1 (MaxPooling  (None, 8, 8, 256)        0         
 2D)                                                             
                                                                 
 flatten (Flatten)           (None, 16384)             0         
                                                                 
 dense (Dense)               (None, 8192)              134225920 
                                                                 
 dense_1 (Dense)             (None, 10)                81930     
                                                                 
=================================================================
Total params: 134,696,266
Trainable params: 134,696,266
Non-trainable params: 0
_________________________________________________________________
Epoch 1/15
1407/1407 [==============================] - 640s 452ms/step - loss: 1.5433 - accuracy: 0.4472 - val_loss: 1.3367 - val_accuracy: 0.5298
…
