Model: "sequential"
_________________________________________________________________
 Layer (type)                Output Shape              Param #   
=================================================================
 conv2d (Conv2D)             (None, 32, 32, 10)        280       
                                                                 
 conv2d_1 (Conv2D)           (None, 32, 32, 20)        1820      
                                                                 
 conv2d_2 (Conv2D)           (None, 32, 32, 40)        7240      
                                                                 
 max_pooling2d (MaxPooling2D  (None, 16, 16, 40)       0         
 )                                                               
                                                                 
 conv2d_3 (Conv2D)           (None, 16, 16, 80)        28880     
                                                                 
 max_pooling2d_1 (MaxPooling  (None, 8, 8, 80)         0         
 2D)                                                             
                                                                 
 conv2d_4 (Conv2D)           (None, 8, 8, 160)         115360    
                                                                 
 max_pooling2d_2 (MaxPooling  (None, 4, 4, 160)        0         
 2D)                                                             
                                                                 
 flatten (Flatten)           (None, 2560)              0         
                                                                 
 dense (Dense)               (None, 10)                25610     
                                                                 
=================================================================
Total params: 179,190
Trainable params: 179,190
Non-trainable params: 0
_________________________________________________________________
loss: [1.7021428346633911, 1.2016174793243408, 0.9594466090202332, 0.8051847815513611, 0.6948522329330444, 0.6025252342224121, 0.5320855379104614, 0.4618101119995117, 0.40258827805519104, 0.35471194982528687]
…
