

Unknown activation function: leakyrelu. Please ensure this object is passed to the `custom_objects` argument. See https://www.tensorflow.org/guide/keras/save_and_serialize#registering_the_custom_object for details.Model: "sequential"
_________________________________________________________________
 Layer (type)                Output Shape              Param #   
=================================================================
 conv2d (Conv2D)             (None, 32, 32, 32)        896       
                                                                 
 conv2d_1 (Conv2D)           (None, 32, 32, 64)        18496     
                                                                 
 conv2d_2 (Conv2D)           (None, 32, 32, 128)       73856     
                                                                 
 dropout (Dropout)           (None, 32, 32, 128)       0         
                                                                 
 max_pooling2d (MaxPooling2D  (None, 16, 16, 128)      0         
 )                                                               
                                                                 
 conv2d_3 (Conv2D)           (None, 16, 16, 256)       295168    
                                                                 
 dropout_1 (Dropout)         (None, 16, 16, 256)       0         
                                                                 
 max_pooling2d_1 (MaxPooling  (None, 8, 8, 256)        0         
 2D)                                                             
                                                                 
 flatten (Flatten)           (None, 16384)             0         
                                                                 
 dense (Dense)               (None, 10)                163850    
                                                                 
=================================================================
Total params: 552,266
Trainable params: 552,266
Non-trainable params: 0
_________________________________________________________________
loss: [1.5253249406814575, 1.027556300163269, 0.8325510621070862, 0.7008482813835144, 0.6100515127182007, 0.5295446515083313, 0.46301719546318054, 0.40605852007865906, 0.3588546812534332, 0.32090920209884644, 0.2850809693336487, 0.2601805627346039, 0.23761308193206787, 0.2156737595796585, 0.19893509149551392]
…
