Model: "sequential"
_________________________________________________________________
 Layer (type)                Output Shape              Param #   
=================================================================
 conv2d (Conv2D)             (None, 32, 32, 64)        1792      
                                                                 
 conv2d_1 (Conv2D)           (None, 32, 32, 128)       73856     
                                                                 
 conv2d_2 (Conv2D)           (None, 32, 32, 256)       295168    
                                                                 
 max_pooling2d (MaxPooling2D  (None, 16, 16, 256)      0         
 )                                                               
                                                                 
 conv2d_3 (Conv2D)           (None, 16, 16, 512)       1180160   
                                                                 
 max_pooling2d_1 (MaxPooling  (None, 8, 8, 512)        0         
 2D)                                                             
                                                                 
 flatten (Flatten)           (None, 32768)             0         
                                                                 
 dense (Dense)               (None, 10)                327690    
                                                                 
=================================================================
Total params: 1,878,666
Trainable params: 1,878,666
Non-trainable params: 0
_________________________________________________________________
loss: [1.5900964736938477, 1.0638216733932495, 0.8131488561630249, 0.6465939879417419, 0.4980171024799347, 0.36730003356933594, 0.2513797879219055, 0.17893609404563904, 0.13328294456005096, 0.09218436479568481]
…
