Model: "sequential"
_________________________________________________________________
 Layer (type)                Output Shape              Param #   
=================================================================
 conv2d (Conv2D)             (None, 32, 32, 48)        1344      
                                                                 
 conv2d_1 (Conv2D)           (None, 32, 32, 96)        41568     
                                                                 
 conv2d_2 (Conv2D)           (None, 32, 32, 192)       166080    
                                                                 
 dropout (Dropout)           (None, 32, 32, 192)       0         
                                                                 
 max_pooling2d (MaxPooling2D  (None, 16, 16, 192)      0         
 )                                                               
                                                                 
 conv2d_3 (Conv2D)           (None, 16, 16, 384)       663936    
                                                                 
 dropout_1 (Dropout)         (None, 16, 16, 384)       0         
                                                                 
 max_pooling2d_1 (MaxPooling  (None, 8, 8, 384)        0         
 2D)                                                             
                                                                 
 flatten (Flatten)           (None, 24576)             0         
                                                                 
 dense (Dense)               (None, 10)                245770    
                                                                 
=================================================================
Total params: 1,118,698
Trainable params: 1,118,698
Non-trainable params: 0
_________________________________________________________________
loss: [1.5679982900619507, 1.053443193435669, 0.832980215549469, 0.6844437122344971, 0.562793493270874, 0.4597298502922058, 0.36984458565711975, 0.29983410239219666, 0.2368747889995575, 0.20441357791423798, 0.170510932803154, 0.14281755685806274, 0.12760493159294128, 0.11852734535932541, 0.0996372178196907]
…
