Model: "sequential"
_________________________________________________________________
 Layer (type)                Output Shape              Param #   
=================================================================
 conv2d (Conv2D)             (None, 32, 32, 32)        896       
                                                                 
 conv2d_1 (Conv2D)           (None, 32, 32, 64)        18496     
                                                                 
 conv2d_2 (Conv2D)           (None, 32, 32, 128)       73856     
                                                                 
 dropout (Dropout)           (None, 32, 32, 128)       0         
                                                                 
 max_pooling2d (MaxPooling2D  (None, 16, 16, 128)      0         
 )                                                               
                                                                 
 conv2d_3 (Conv2D)           (None, 16, 16, 256)       295168    
                                                                 
 dropout_1 (Dropout)         (None, 16, 16, 256)       0         
                                                                 
 max_pooling2d_1 (MaxPooling  (None, 8, 8, 256)        0         
 2D)                                                             
                                                                 
 flatten (Flatten)           (None, 16384)             0         
                                                                 
 dense (Dense)               (None, 10)                163850    
                                                                 
=================================================================
Total params: 552,266
Trainable params: 552,266
Non-trainable params: 0
_________________________________________________________________
loss: [1.6055402755737305, 1.0925707817077637, 0.8581804037094116, 0.7046422958374023, 0.5865735411643982, 0.4805244505405426, 0.39185357093811035, 0.3233731985092163, 0.2603781819343567, 0.21487697958946228]
…
