Model: "sequential"
_________________________________________________________________
 Layer (type)                Output Shape              Param #   
=================================================================
 conv2d (Conv2D)             (None, 32, 32, 32)        896       
                                                                 
 conv2d_1 (Conv2D)           (None, 32, 32, 64)        18496     
                                                                 
 conv2d_2 (Conv2D)           (None, 32, 32, 128)       73856     
                                                                 
 dropout (Dropout)           (None, 32, 32, 128)       0         
                                                                 
 max_pooling2d (MaxPooling2D  (None, 16, 16, 128)      0         
 )                                                               
                                                                 
 conv2d_3 (Conv2D)           (None, 16, 16, 256)       295168    
                                                                 
 dropout_1 (Dropout)         (None, 16, 16, 256)       0         
                                                                 
 max_pooling2d_1 (MaxPooling  (None, 8, 8, 256)        0         
 2D)                                                             
                                                                 
 flatten (Flatten)           (None, 16384)             0         
                                                                 
 dense (Dense)               (None, 8192)              134225920 
                                                                 
 dense_1 (Dense)             (None, 4096)              33558528  
                                                                 
 dense_2 (Dense)             (None, 10)                40970     
                                                                 
=================================================================
Total params: 168,213,834
Trainable params: 168,213,834
Non-trainable params: 0
_________________________________________________________________
loss: [1.5794317722320557, 1.0562468767166138, 0.7511150240898132, 0.4927310347557068, 0.2698303461074829, 0.14882253110408783, 0.09723877906799316, 0.06531014293432236, 0.05103938281536102, 0.04251494258642197]
…
