Model: "sequential"
_________________________________________________________________
 Layer (type)                Output Shape              Param #   
=================================================================
 conv2d (Conv2D)             (None, 32, 32, 20)        560       
                                                                 
 conv2d_1 (Conv2D)           (None, 32, 32, 40)        7240      
                                                                 
 conv2d_2 (Conv2D)           (None, 32, 32, 80)        28880     
                                                                 
 max_pooling2d (MaxPooling2D  (None, 16, 16, 80)       0         
 )                                                               
                                                                 
 conv2d_3 (Conv2D)           (None, 16, 16, 160)       115360    
                                                                 
 max_pooling2d_1 (MaxPooling  (None, 8, 8, 160)        0         
 2D)                                                             
                                                                 
 conv2d_4 (Conv2D)           (None, 8, 8, 320)         461120    
                                                                 
 max_pooling2d_2 (MaxPooling  (None, 4, 4, 320)        0         
 2D)                                                             
                                                                 
 flatten (Flatten)           (None, 5120)              0         
                                                                 
 dense (Dense)               (None, 10)                51210     
                                                                 
=================================================================
Total params: 664,370
Trainable params: 664,370
Non-trainable params: 0
_________________________________________________________________
loss: [1.6990011930465698, 1.1357377767562866, 0.8559779524803162, 0.6945847272872925, 0.5621978044509888, 0.4428575932979584, 0.34418120980262756, 0.2561458647251129, 0.20046350359916687, 0.15657006204128265]
…
