Model: "sequential"
_________________________________________________________________
 Layer (type)                Output Shape              Param #   
=================================================================
 conv2d (Conv2D)             (None, 32, 32, 20)        560       
                                                                 
 conv2d_1 (Conv2D)           (None, 32, 32, 40)        7240      
                                                                 
 conv2d_2 (Conv2D)           (None, 32, 32, 80)        28880     
                                                                 
 max_pooling2d (MaxPooling2D  (None, 16, 16, 80)       0         
 )                                                               
                                                                 
 conv2d_3 (Conv2D)           (None, 16, 16, 160)       115360    
                                                                 
 max_pooling2d_1 (MaxPooling  (None, 8, 8, 160)        0         
 2D)                                                             
                                                                 
 conv2d_4 (Conv2D)           (None, 8, 8, 320)         461120    
                                                                 
 max_pooling2d_2 (MaxPooling  (None, 4, 4, 320)        0         
 2D)                                                             
                                                                 
 conv2d_5 (Conv2D)           (None, 4, 4, 640)         1843840   
                                                                 
 max_pooling2d_3 (MaxPooling  (None, 2, 2, 640)        0         
 2D)                                                             
                                                                 
 flatten (Flatten)           (None, 2560)              0         
                                                                 
 dense (Dense)               (None, 10)                25610     
                                                                 
=================================================================
Total params: 2,482,610
Trainable params: 2,482,610
Non-trainable params: 0
_________________________________________________________________
loss: [2.6619014739990234, 2.3039486408233643, 2.3039674758911133, 2.303861141204834, 2.304044008255005, 2.3039493560791016, 2.3037033081054688, 2.3039655685424805, 2.30399227142334, 2.3041560649871826]
…
