Model: "sequential"
_________________________________________________________________
 Layer (type)                Output Shape              Param #   
=================================================================
 conv2d (Conv2D)             (None, 32, 32, 48)        1344      
                                                                 
 conv2d_1 (Conv2D)           (None, 32, 32, 96)        41568     
                                                                 
 conv2d_2 (Conv2D)           (None, 32, 32, 192)       166080    
                                                                 
 dropout (Dropout)           (None, 32, 32, 192)       0         
                                                                 
 max_pooling2d (MaxPooling2D  (None, 16, 16, 192)      0         
 )                                                               
                                                                 
 conv2d_3 (Conv2D)           (None, 16, 16, 384)       663936    
                                                                 
 dropout_1 (Dropout)         (None, 16, 16, 384)       0         
                                                                 
 max_pooling2d_1 (MaxPooling  (None, 8, 8, 384)        0         
 2D)                                                             
                                                                 
 conv2d_4 (Conv2D)           (None, 8, 8, 768)         2654976   
                                                                 
 dropout_2 (Dropout)         (None, 8, 8, 768)         0         
                                                                 
 max_pooling2d_2 (MaxPooling  (None, 4, 4, 768)        0         
 2D)                                                             
                                                                 
 flatten (Flatten)           (None, 12288)             0         
                                                                 
 dense (Dense)               (None, 10)                122890    
                                                                 
=================================================================
Total params: 3,650,794
Trainable params: 3,650,794
Non-trainable params: 0
_________________________________________________________________
loss: [1.6038366556167603, 1.0347777605056763, 0.7941325306892395, 0.6369810104370117, 0.517943799495697, 0.4123980402946472, 0.3250574469566345, 0.2523840367794037, 0.20089930295944214, 0.1631985753774643]
…
