Model: "sequential"
_________________________________________________________________
 Layer (type)                Output Shape              Param #   
=================================================================
 conv2d (Conv2D)             (None, 32, 32, 15)        420       
                                                                 
 conv2d_1 (Conv2D)           (None, 32, 32, 30)        4080      
                                                                 
 conv2d_2 (Conv2D)           (None, 32, 32, 60)        16260     
                                                                 
 max_pooling2d (MaxPooling2D  (None, 16, 16, 60)       0         
 )                                                               
                                                                 
 conv2d_3 (Conv2D)           (None, 16, 16, 120)       64920     
                                                                 
 max_pooling2d_1 (MaxPooling  (None, 8, 8, 120)        0         
 2D)                                                             
                                                                 
 conv2d_4 (Conv2D)           (None, 8, 8, 240)         259440    
                                                                 
 max_pooling2d_2 (MaxPooling  (None, 4, 4, 240)        0         
 2D)                                                             
                                                                 
 flatten (Flatten)           (None, 3840)              0         
                                                                 
 dense (Dense)               (None, 10)                38410     
                                                                 
=================================================================
Total params: 383,530
Trainable params: 383,530
Non-trainable params: 0
_________________________________________________________________
loss: [1.7115373611450195, 1.1558938026428223, 0.9097575545310974, 0.7526734471321106, 0.6288814544677734, 0.5277182459831238, 0.43613314628601074, 0.351672887802124, 0.2844074070453644, 0.24158541858196259]
…
