Model: "sequential"
_________________________________________________________________
 Layer (type)                Output Shape              Param #   
=================================================================
 conv2d (Conv2D)             (None, 32, 32, 32)        896       
                                                                 
 conv2d_1 (Conv2D)           (None, 32, 32, 64)        18496     
                                                                 
 conv2d_2 (Conv2D)           (None, 32, 32, 128)       73856     
                                                                 
 dropout (Dropout)           (None, 32, 32, 128)       0         
                                                                 
 max_pooling2d (MaxPooling2D  (None, 16, 16, 128)      0         
 )                                                               
                                                                 
 conv2d_3 (Conv2D)           (None, 16, 16, 256)       295168    
                                                                 
 dropout_1 (Dropout)         (None, 16, 16, 256)       0         
                                                                 
 max_pooling2d_1 (MaxPooling  (None, 8, 8, 256)        0         
 2D)                                                             
                                                                 
 flatten (Flatten)           (None, 16384)             0         
                                                                 
 dense (Dense)               (None, 10)                163850    
                                                                 
=================================================================
Total params: 552,266
Trainable params: 552,266
Non-trainable params: 0
_________________________________________________________________
loss: [1.5625920295715332, 1.0438281297683716, 0.8360666036605835, 0.6994688510894775, 0.5944567918777466, 0.5059788823127747, 0.42863425612449646, 0.36535313725471497, 0.31315457820892334, 0.27365827560424805]
…
