Model: "sequential"
_________________________________________________________________
 Layer (type)                Output Shape              Param #   
=================================================================
 conv2d (Conv2D)             (None, 32, 32, 25)        700       
                                                                 
 conv2d_1 (Conv2D)           (None, 32, 32, 50)        11300     
                                                                 
 conv2d_2 (Conv2D)           (None, 32, 32, 100)       45100     
                                                                 
 max_pooling2d (MaxPooling2D  (None, 16, 16, 100)      0         
 )                                                               
                                                                 
 conv2d_3 (Conv2D)           (None, 16, 16, 200)       180200    
                                                                 
 max_pooling2d_1 (MaxPooling  (None, 8, 8, 200)        0         
 2D)                                                             
                                                                 
 conv2d_4 (Conv2D)           (None, 8, 8, 400)         720400    
                                                                 
 max_pooling2d_2 (MaxPooling  (None, 4, 4, 400)        0         
 2D)                                                             
                                                                 
 flatten (Flatten)           (None, 6400)              0         
                                                                 
 dense (Dense)               (None, 10)                64010     
                                                                 
=================================================================
Total params: 1,021,710
Trainable params: 1,021,710
Non-trainable params: 0
_________________________________________________________________
loss: [1.6802444458007812, 1.1285384893417358, 0.8571635484695435, 0.689694344997406, 0.5533900856971741, 0.43069618940353394, 0.3220379650592804, 0.23624229431152344, 0.18269260227680206, 0.14683333039283752]
…
