Model: "sequential"
_________________________________________________________________
 Layer (type)                Output Shape              Param #   
=================================================================
 conv2d (Conv2D)             (None, 32, 32, 32)        896       
                                                                 
 conv2d_1 (Conv2D)           (None, 32, 32, 64)        18496     
                                                                 
 conv2d_2 (Conv2D)           (None, 32, 32, 128)       73856     
                                                                 
 max_pooling2d (MaxPooling2D  (None, 16, 16, 128)      0         
 )                                                               
                                                                 
 conv2d_3 (Conv2D)           (None, 16, 16, 256)       295168    
                                                                 
 max_pooling2d_1 (MaxPooling  (None, 8, 8, 256)        0         
 2D)                                                             
                                                                 
 conv2d_4 (Conv2D)           (None, 8, 8, 512)         1180160   
                                                                 
 max_pooling2d_2 (MaxPooling  (None, 4, 4, 512)        0         
 2D)                                                             
                                                                 
 flatten (Flatten)           (None, 8192)              0         
                                                                 
 dense (Dense)               (None, 10)                81930     
                                                                 
=================================================================
Total params: 1,650,506
Trainable params: 1,650,506
Non-trainable params: 0
_________________________________________________________________
loss: [1.6810061931610107, 1.1052067279815674, 0.8287920951843262, 0.6541738510131836, 0.5117375254631042, 0.38156935572624207, 0.2662496864795685, 0.19119597971439362, 0.14041702449321747, 0.10626382380723953]
…
