Model: "sequential"
_________________________________________________________________
 Layer (type)                Output Shape              Param #   
=================================================================
 conv2d (Conv2D)             (None, 32, 32, 48)        1344      
                                                                 
 conv2d_1 (Conv2D)           (None, 32, 32, 96)        41568     
                                                                 
 conv2d_2 (Conv2D)           (None, 32, 32, 192)       166080    
                                                                 
 dropout (Dropout)           (None, 32, 32, 192)       0         
                                                                 
 max_pooling2d (MaxPooling2D  (None, 16, 16, 192)      0         
 )                                                               
                                                                 
 conv2d_3 (Conv2D)           (None, 16, 16, 384)       663936    
                                                                 
 dropout_1 (Dropout)         (None, 16, 16, 384)       0         
                                                                 
 max_pooling2d_1 (MaxPooling  (None, 8, 8, 384)        0         
 2D)                                                             
                                                                 
 conv2d_4 (Conv2D)           (None, 8, 8, 768)         2654976   
                                                                 
 dropout_2 (Dropout)         (None, 8, 8, 768)         0         
                                                                 
 max_pooling2d_2 (MaxPooling  (None, 4, 4, 768)        0         
 2D)                                                             
                                                                 
 flatten (Flatten)           (None, 12288)             0         
                                                                 
 dense (Dense)               (None, 10)                122890    
                                                                 
=================================================================
Total params: 3,650,794
Trainable params: 3,650,794
Non-trainable params: 0
_________________________________________________________________
loss: [1.614990234375, 1.090651512145996, 0.8393833041191101, 0.6878740787506104, 0.5746477246284485, 0.47944679856300354, 0.40048104524612427, 0.33222171664237976, 0.27770090103149414, 0.2367040514945984, 0.208770751953125, 0.17108890414237976, 0.16031542420387268, 0.1361585110425949, 0.12445984035730362]
…
